…
y_False/format_from_metric_False/metric_from_masked_tensor_False/momentum_for_metric_0.1/input_adaptive_False/metric_False/bn_momentum_0.1/bn_eps_0.1/custom_bn_False/lr_0.8/bn_var_lb_0/sync_bn_False/centralize_conv_False/centralize_fc_False/momentum_for_bias_diff_0.1/weight_decay_scheme_no_bn/effective_weight_decay_0.0/corrected_kaiming_init_False/nvidia_setting_False/normalize_False/warmup_epochs_5/label_smoothing_0.0/mixup_0.0/weight_decay_4e-05/fraclen_lb_0/best_model.pt.
AllReduceDistributedDataParallel(
  (module): Model(
    (head): Sequential(
      (0): ReLUClipFXQConvBN(
        (conv): Conv2d(3, 32, kernel_size=(3, 3), stride=(2, 2), padding=(1, 1), bias=False)
        (bn): BatchNorm2d(32, eps=1e-05, momentum=0.1, affine=True, track_running_stats=True)
      )
      (1): ReLU(inplace=True)
    )
    (stage_0_layer_0): InvertedResidual(
      (body): Sequential(
        (0): ReLUClipFXQConvBN(
          (conv): Conv2d(32, 32, kernel_size=(3, 3), stride=(1, 1), padding=(1, 1), groups=32, bias=False)
          (bn): BatchNorm2d(32, eps=1e-05, momentum=0.1, affine=True, track_running_stats=True)
        )
        (1): ReLUClipFXQConvBN(
          (conv): Conv2d(32, 16, kernel_size=(1, 1), stride=(1, 1), bias=False)
          (bn): BatchNorm2d(16, eps=1e-05, momentum=0.1, affine=True, track_running_stats=True)
        )
      )
    )
    (stage_1_layer_0): InvertedResidual(
      (body): Sequential(
        (0): ReLUClipFXQConvBN(
          (conv): Conv2d(16, 96, kernel_size=(1, 1), stride=(1, 1), bias=False)
          (bn): BatchNorm2d(96, eps=1e-05, momentum=0.1, affine=True, track_running_stats=True)
        )
        (1): ReLUClipFXQConvBN(
          (conv): Conv2d(96, 96, kernel_size=(3, 3), stride=(2, 2), padding=(1, 1), groups=96, bias=False)
          (bn): BatchNorm2d(96, eps=1e-05, momentum=0.1, affine=True, track_running_stats=True)
        )
        (2): ReLUClipFXQConvBN(
          (conv): Conv2d(96, 24, kernel_size=(1, 1), stride=(1, 1), bias=False)
          (bn): BatchNorm2d(24, eps=1e-05, momentum=0.1, affine=True, track_running_stats=True)
        )
      )
    )
    (stage_1_layer_1): InvertedResidual(
      (body): Sequential(
        (0): ReLUClipFXQConvBN(
          (conv): Conv2d(24, 144, kernel_size=(1, 1), stride=(1, 1), bias=False)
          (bn): BatchNorm2d(144, eps=1e-05, momentum=0.1, affine=True, track_running_stats=True)
        )
        (1): ReLUClipFXQConvBN(
          (conv): Conv2d(144, 144, kernel_size=(3, 3), stride=(1, 1), padding=(1, 1), groups=144, bias=False)
          (bn): BatchNorm2d(144, eps=1e-05, momentum=0.1, affine=True, track_running_stats=True)
        )
        (2): ReLUClipFXQConvBN(
          (conv): Conv2d(144, 24, kernel_size=(1, 1), stride=(1, 1), bias=False)
          (bn): BatchNorm2d(24, eps=1e-05, momentum=0.1, affine=True, track_running_stats=True)
        )
      )
    )
    (stage_2_layer_0): InvertedResidual(
      (body): Sequential(
        (0): ReLUClipFXQConvBN(
          (conv): Conv2d(24, 144, kernel_size=(1, 1), stride=(1, 1), bias=False)
          (bn): BatchNorm2d(144, eps=1e-05, momentum=0.1, affine=True, track_running_stats=True)
        )
        (1): ReLUClipFXQConvBN(
          (conv): Conv2d(144, 144, kernel_size=(3, 3), stride=(2, 2), padding=(1, 1), groups=144, bias=False)
          (bn): BatchNorm2d(144, eps=1e-05, momentum=0.1, affine=True, track_running_stats=True)
        )
        (2): ReLUClipFXQConvBN(
          (conv): Conv2d(144, 32, kernel_size=(1, 1), stride=(1, 1), bias=False)
          (bn): BatchNorm2d(32, eps=1e-05, momentum=0.1, affine=True, track_running_stats=True)
        )
      )
    )
    (stage_2_layer_1): InvertedResidual(
      (body): Sequential(
        (0): ReLUClipFXQConvBN(
          (conv): Conv2d(32, 192, kernel_size=(1, 1), stride=(1, 1), bias=False)
          (bn): BatchNorm2d(192, eps=1e-05, momentum=0.1, affine=True, track_running_stats=True)
        )
        (1): ReLUClipFXQConvBN(
          (conv): Conv2d(192, 192, kernel_size=(3, 3), stride=(1, 1), padding=(1, 1), groups=192, bias=False)
          (bn): BatchNorm2d(192, eps=1e-05, momentum=0.1, affine=True, track_running_stats=True)
        )
        (2): ReLUClipFXQConvBN(
          (conv): Conv2d(192, 32, kernel_size=(1, 1), stride=(1, 1), bias=False)
          (bn): BatchNorm2d(32, eps=1e-05, momentum=0.1, affine=True, track_running_stats=True)
        )
      )
    )
    (stage_2_layer_2): InvertedResidual(
      (body): Sequential(
        (0): ReLUClipFXQConvBN(
          (conv): Conv2d(32, 192, kernel_size=(1, 1), stride=(1, 1), bias=False)
          (bn): BatchNorm2d(192, eps=1e-05, momentum=0.1, affine=True, track_running_stats=True)
        )
        (1): ReLUClipFXQConvBN(
          (conv): Conv2d(192, 192, kernel_size=(3, 3), stride=(1, 1), padding=(1, 1), groups=192, bias=False)
          (bn): BatchNorm2d(192, eps=1e-05, momentum=0.1, affine=True, track_running_stats=True)
        )
        (2): ReLUClipFXQConvBN(
          (conv): Conv2d(192, 32, kernel_size=(1, 1), stride=(1, 1), bias=False)
          (bn): BatchNorm2d(32, eps=1e-05, momentum=0.1, affine=True, track_running_stats=True)
        )
      )
    )
    (stage_3_layer_0): InvertedResidual(
      (body): Sequential(
        (0): ReLUClipFXQConvBN(
          (conv): Conv2d(32, 192, kernel_size=(1, 1), stride=(1, 1), bias=False)
          (bn): BatchNorm2d(192, eps=1e-05, momentum=0.1, affine=True, track_running_stats=True)
        )
        (1): ReLUClipFXQConvBN(
          (conv): Conv2d(192, 192, kernel_size=(3, 3), stride=(2, 2), padding=(1, 1), groups=192, bias=False)
          (bn): BatchNorm2d(192, eps=1e-05, momentum=0.1, affine=True, track_running_stats=True)
        )
        (2): ReLUClipFXQConvBN(
          (conv): Conv2d(192, 64, kernel_size=(1, 1), stride=(1, 1), bias=False)
          (bn): BatchNorm2d(64, eps=1e-05, momentum=0.1, affine=True, track_running_stats=True)
        )
      )
    )
    (stage_3_layer_1): InvertedResidual(
      (body): Sequential(
        (0): ReLUClipFXQConvBN(
          (conv): Conv2d(64, 384, kernel_size=(1, 1), stride=(1, 1), bias=False)
          (bn): BatchNorm2d(384, eps=1e-05, momentum=0.1, affine=True, track_running_stats=True)
        )
        (1): ReLUClipFXQConvBN(
          (conv): Conv2d(384, 384, kernel_size=(3, 3), stride=(1, 1), padding=(1, 1), groups=384, bias=False)
          (bn): BatchNorm2d(384, eps=1e-05, momentum=0.1, affine=True, track_running_stats=True)
        )
        (2): ReLUClipFXQConvBN(
          (conv): Conv2d(384, 64, kernel_size=(1, 1), stride=(1, 1), bias=False)
          (bn): BatchNorm2d(64, eps=1e-05, momentum=0.1, affine=True, track_running_stats=True)
        )
      )
    )
    (stage_3_layer_2): InvertedResidual(
      (body): Sequential(
        (0): ReLUClipFXQConvBN(
          (conv): Conv2d(64, 384, kernel_size=(1, 1), stride=(1, 1), bias=False)
          (bn): BatchNorm2d(384, eps=1e-05, momentum=0.1, affine=True, track_running_stats=True)
        )
        (1): ReLUClipFXQConvBN(
          (conv): Conv2d(384, 384, kernel_size=(3, 3), stride=(1, 1), padding=(1, 1), groups=384, bias=False)
          (bn): BatchNorm2d(384, eps=1e-05, momentum=0.1, affine=True, track_running_stats=True)
        )
        (2): ReLUClipFXQConvBN(
          (conv): Conv2d(384, 64, kernel_size=(1, 1), stride=(1, 1), bias=False)
          (bn): BatchNorm2d(64, eps=1e-05, momentum=0.1, affine=True, track_running_stats=True)
        )
      )
    )
    (stage_3_layer_3): InvertedResidual(
      (body): Sequential(
        (0): ReLUClipFXQConvBN(
          (conv): Conv2d(64, 384, kernel_size=(1, 1), stride=(1, 1), bias=False)
          (bn): BatchNorm2d(384, eps=1e-05, momentum=0.1, affine=True, track_running_stats=True)
        )
        (1): ReLUClipFXQConvBN(
          (conv): Conv2d(384, 384, kernel_size=(3, 3), stride=(1, 1), padding=(1, 1), groups=384, bias=False)
          (bn): BatchNorm2d(384, eps=1e-05, momentum=0.1, affine=True, track_running_stats=True)
        )
        (2): ReLUClipFXQConvBN(
          (conv): Conv2d(384, 64, kernel_size=(1, 1), stride=(1, 1), bias=False)
          (bn): BatchNorm2d(64, eps=1e-05, momentum=0.1, affine=True, track_running_stats=True)
        )
      )
    )
    (stage_4_layer_0): InvertedResidual(
      (body): Sequential(
        (0): ReLUClipFXQConvBN(
          (conv): Conv2d(64, 384, kernel_size=(1, 1), stride=(1, 1), bias=False)
          (bn): BatchNorm2d(384, eps=1e-05, momentum=0.1, affine=True, track_running_stats=True)
        )
        (1): ReLUClipFXQConvBN(
          (conv): Conv2d(384, 384, kernel_size=(3, 3), stride=(1, 1), padding=(1, 1), groups=384, bias=False)
          (bn): BatchNorm2d(384, eps=1e-05, momentum=0.1, affine=True, track_running_stats=True)
        )
        (2): ReLUClipFXQConvBN(
          (conv): Conv2d(384, 96, kernel_size=(1, 1), stride=(1, 1), bias=False)
          (bn): BatchNorm2d(96, eps=1e-05, momentum=0.1, affine=True, track_running_stats=True)
        )
      )
    )
    (stage_4_layer_1): InvertedResidual(
      (body): Sequential(
        (0): ReLUClipFXQConvBN(
          (conv): Conv2d(96, 576, kernel_size=(1, 1), stride=(1, 1), bias=False)
          (bn): BatchNorm2d(576, eps=1e-05, momentum=0.1, affine=True, track_running_stats=True)
        )
        (1): ReLUClipFXQConvBN(
          (conv): Conv2d(576, 576, kernel_size=(3, 3), stride=(1, 1), padding=(1, 1), groups=576, bias=False)
          (bn): BatchNorm2d(576, eps=1e-05, momentum=0.1, affine=True, track_running_stats=True)
        )
        (2): ReLUClipFXQConvBN(
          (conv): Conv2d(576, 96, kernel_size=(1, 1), stride=(1, 1), bias=False)
          (bn): BatchNorm2d(96, eps=1e-05, momentum=0.1, affine=True, track_running_stats=True)
        )
      )
    )
    (stage_4_layer_2): InvertedResidual(
      (body): Sequential(
        (0): ReLUClipFXQConvBN(
          (conv): Conv2d(96, 576, kernel_size=(1, 1), stride=(1, 1), bias=False)
          (bn): BatchNorm2d(576, eps=1e-05, momentum=0.1, affine=True, track_running_stats=True)
        )
        (1): ReLUClipFXQConvBN(
          (conv): Conv2d(576, 576, kernel_size=(3, 3), stride=(1, 1), padding=(1, 1), groups=576, bias=False)
          (bn): BatchNorm2d(576, eps=1e-05, momentum=0.1, affine=True, track_running_stats=True)
        )
        (2): ReLUClipFXQConvBN(
          (conv): Conv2d(576, 96, kernel_size=(1, 1), stride=(1, 1), bias=False)
          (bn): BatchNorm2d(96, eps=1e-05, momentum=0.1, affine=True, track_running_stats=True)
        )
      )
    )
    (stage_5_layer_0): InvertedResidual(
      (body): Sequential(
        (0): ReLUClipFXQConvBN(
          (conv): Conv2d(96, 576, kernel_size=(1, 1), stride=(1, 1), bias=False)
          (bn): BatchNorm2d(576, eps=1e-05, momentum=0.1, affine=True, track_running_stats=True)
        )
        (1): ReLUClipFXQConvBN(
          (conv): Conv2d(576, 576, kernel_size=(3, 3), stride=(2, 2), padding=(1, 1), groups=576, bias=False)
          (bn): BatchNorm2d(576, eps=1e-05, momentum=0.1, affine=True, track_running_stats=True)
        )
        (2): ReLUClipFXQConvBN(
          (conv): Conv2d(576, 160, kernel_size=(1, 1), stride=(1, 1), bias=False)
          (bn): BatchNorm2d(160, eps=1e-05, momentum=0.1, affine=True, track_running_stats=True)
        )
      )
    )
    (stage_5_layer_1): InvertedResidual(
      (body): Sequential(
        (0): ReLUClipFXQConvBN(
          (conv): Conv2d(160, 960, kernel_size=(1, 1), stride=(1, 1), bias=False)
          (bn): BatchNorm2d(960, eps=1e-05, momentum=0.1, affine=True, track_running_stats=True)
        )
        (1): ReLUClipFXQConvBN(
          (conv): Conv2d(960, 960, kernel_size=(3, 3), stride=(1, 1), padding=(1, 1), groups=960, bias=False)
          (bn): BatchNorm2d(960, eps=1e-05, momentum=0.1, affine=True, track_running_stats=True)
        )
        (2): ReLUClipFXQConvBN(
          (conv): Conv2d(960, 160, kernel_size=(1, 1), stride=(1, 1), bias=False)
          (bn): BatchNorm2d(160, eps=1e-05, momentum=0.1, affine=True, track_running_stats=True)
        )
      )
    )
    (stage_5_layer_2): InvertedResidual(
      (body): Sequential(
        (0): ReLUClipFXQConvBN(
          (conv): Conv2d(160, 960, kernel_size=(1, 1), stride=(1, 1), bias=False)
          (bn): BatchNorm2d(960, eps=1e-05, momentum=0.1, affine=True, track_running_stats=True)
        )
        (1): ReLUClipFXQConvBN(
          (conv): Conv2d(960, 960, kernel_size=(3, 3), stride=(1, 1), padding=(1, 1), groups=960, bias=False)
          (bn): BatchNorm2d(960, eps=1e-05, momentum=0.1, affine=True, track_running_stats=True)
        )
        (2): ReLUClipFXQConvBN(
          (conv): Conv2d(960, 160, kernel_size=(1, 1), stride=(1, 1), bias=False)
          (bn): BatchNorm2d(160, eps=1e-05, momentum=0.1, affine=True, track_running_stats=True)
        )
      )
    )
    (stage_6_layer_0): InvertedResidual(
      (body): Sequential(
        (0): ReLUClipFXQConvBN(
          (conv): Conv2d(160, 960, kernel_size=(1, 1), stride=(1, 1), bias=False)
          (bn): BatchNorm2d(960, eps=1e-05, momentum=0.1, affine=True, track_running_stats=True)
        )
        (1): ReLUClipFXQConvBN(
          (conv): Conv2d(960, 960, kernel_size=(3, 3), stride=(1, 1), padding=(1, 1), groups=960, bias=False)
          (bn): BatchNorm2d(960, eps=1e-05, momentum=0.1, affine=True, track_running_stats=True)
        )
        (2): ReLUClipFXQConvBN(
          (conv): Conv2d(960, 320, kernel_size=(1, 1), stride=(1, 1), bias=False)
          (bn): BatchNorm2d(320, eps=1e-05, momentum=0.1, affine=True, track_running_stats=True)
        )
      )
    )
    (tail): Sequential(
      (0): ReLUClipFXQConvBN(
        (conv): Conv2d(320, 1280, kernel_size=(1, 1), stride=(1, 1), bias=False)
        (bn): BatchNorm2d(1280, eps=1e-05, momentum=0.1, affine=True, track_running_stats=True)
      )
      (1): ReLU(inplace=True)
    )
    (avgpool): AdaptiveAvgPool2d(output_size=1)
    (classifier): Sequential(
      (0): ReLUClipFXQLinear(in_features=1280, out_features=1000, bias=True)
    )
  )
)
log dir:  /nfs/qjin2/checkpoints/FixBits/results/imagenet/mobilenetv2/ptcv_pretrained_False/fix_bn_False/finetune_iters
…
