…
ptcv model conv name:  features.stage4.unit3.body.conv1.conv
ptcv model bn name:  features.stage4.unit3.body.conv1.bn
model layer name:  stage_3_layer_2.body.1
ptcv model conv name:  features.stage4.unit3.body.conv2.conv
ptcv model bn name:  features.stage4.unit3.body.conv2.bn
model layer name:  stage_3_layer_2.body.2
ptcv model conv name:  features.stage4.unit3.body.conv3.conv
ptcv model bn name:  features.stage4.unit3.body.conv3.bn
model layer name:  classifier.0
ptcv fc name:  output
Loaded ptcv pretrained model.
DataParallel(
  (module): Model(
    (head): Sequential(
      (0): ReLUClipFXQConvBN(
        (conv): Conv2d(3, 64, kernel_size=(7, 7), stride=(2, 2), padding=(3, 3), bias=False)
        (bn): BatchNorm2d(64, eps=1e-05, momentum=0.1, affine=True, track_running_stats=True)
      )
      (1): ReLU(inplace=True)
      (2): MaxPool2d(kernel_size=3, stride=2, padding=1, dilation=1, ceil_mode=False)
    )
    (stage_0_layer_0): Bottleneck(
      (body): Sequential(
        (0): ReLUClipFXQConvBN(
          (conv): Conv2d(64, 64, kernel_size=(1, 1), stride=(1, 1), bias=False)
          (bn): BatchNorm2d(64, eps=1e-05, momentum=0.1, affine=True, track_running_stats=True)
        )
        (1): ReLUClipFXQConvBN(
          (conv): Conv2d(64, 64, kernel_size=(3, 3), stride=(1, 1), padding=(1, 1), bias=False)
          (bn): BatchNorm2d(64, eps=1e-05, momentum=0.1, affine=True, track_running_stats=True)
        )
        (2): ReLUClipFXQConvBN(
          (conv): Conv2d(64, 256, kernel_size=(1, 1), stride=(1, 1), bias=False)
          (bn): BatchNorm2d(256, eps=1e-05, momentum=0.1, affine=True, track_running_stats=True)
        )
      )
      (shortcut): Sequential(
        (0): ReLUClipFXQConvBN(
          (conv): Conv2d(64, 256, kernel_size=(1, 1), stride=(1, 1), bias=False)
          (bn): BatchNorm2d(256, eps=1e-05, momentum=0.1, affine=True, track_running_stats=True)
        )
      )
      (post_relu): ReLU(inplace=True)
    )
    (stage_0_layer_1): Bottleneck(
      (body): Sequential(
        (0): ReLUClipFXQConvBN(
          (conv): Conv2d(256, 64, kernel_size=(1, 1), stride=(1, 1), bias=False)
          (bn): BatchNorm2d(64, eps=1e-05, momentum=0.1, affine=True, track_running_stats=True)
        )
        (1): ReLUClipFXQConvBN(
          (conv): Conv2d(64, 64, kernel_size=(3, 3), stride=(1, 1), padding=(1, 1), bias=False)
          (bn): BatchNorm2d(64, eps=1e-05, momentum=0.1, affine=True, track_running_stats=True)
        )
        (2): ReLUClipFXQConvBN(
          (conv): Conv2d(64, 256, kernel_size=(1, 1), stride=(1, 1), bias=False)
          (bn): BatchNorm2d(256, eps=1e-05, momentum=0.1, affine=True, track_running_stats=True)
        )
      )
      (post_relu): ReLU(inplace=True)
    )
    (stage_0_layer_2): Bottleneck(
      (body): Sequential(
        (0): ReLUClipFXQConvBN(
          (conv): Conv2d(256, 64, kernel_size=(1, 1), stride=(1, 1), bias=False)
          (bn): BatchNorm2d(64, eps=1e-05, momentum=0.1, affine=True, track_running_stats=True)
        )
        (1): ReLUClipFXQConvBN(
          (conv): Conv2d(64, 64, kernel_size=(3, 3), stride=(1, 1), padding=(1, 1), bias=False)
          (bn): BatchNorm2d(64, eps=1e-05, momentum=0.1, affine=True, track_running_stats=True)
        )
        (2): ReLUClipFXQConvBN(
          (conv): Conv2d(64, 256, kernel_size=(1, 1), stride=(1, 1), bias=False)
          (bn): BatchNorm2d(256, eps=1e-05, momentum=0.1, affine=True, track_running_stats=True)
        )
      )
      (post_relu): ReLU(inplace=True)
    )
    (stage_1_layer_0): Bottleneck(
      (body): Sequential(
        (0): ReLUClipFXQConvBN(
          (conv): Conv2d(256, 128, kernel_size=(1, 1), stride=(1, 1), bias=False)
          (bn): BatchNorm2d(128, eps=1e-05, momentum=0.1, affine=True, track_running_stats=True)
        )
        (1): ReLUClipFXQConvBN(
          (conv): Conv2d(128, 128, kernel_size=(3, 3), stride=(2, 2), padding=(1, 1), bias=False)
          (bn): BatchNorm2d(128, eps=1e-05, momentum=0.1, affine=True, track_running_stats=True)
        )
        (2): ReLUClipFXQConvBN(
          (conv): Conv2d(128, 512, kernel_size=(1, 1), stride=(1, 1), bias=False)
          (bn): BatchNorm2d(512, eps=1e-05, momentum=0.1, affine=True, track_running_stats=True)
        )
      )
      (shortcut): Sequential(
        (0): ReLUClipFXQConvBN(
          (conv): Conv2d(256, 512, kernel_size=(1, 1), stride=(2, 2), bias=False)
          (bn): BatchNorm2d(512, eps=1e-05, momentum=0.1, affine=True, track_running_stats=True)
        )
      )
      (post_relu): ReLU(inplace=True)
    )
    (stage_1_layer_1): Bottleneck(
      (body): Sequential(
        (0): ReLUClipFXQConvBN(
          (conv): Conv2d(512, 128, kernel_size=(1, 1), stride=(1, 1), bias=False)
          (bn): BatchNorm2d(128, eps=1e-05, momentum=0.1, affine=True, track_running_stats=True)
        )
        (1): ReLUClipFXQConvBN(
          (conv): Conv2d(128, 128, kernel_size=(3, 3), stride=(1, 1), padding=(1, 1), bias=False)
          (bn): BatchNorm2d(128, eps=1e-05, momentum=0.1, affine=True, track_running_stats=True)
        )
        (2): ReLUClipFXQConvBN(
          (conv): Conv2d(128, 512, kernel_size=(1, 1), stride=(1, 1), bias=False)
          (bn): BatchNorm2d(512, eps=1e-05, momentum=0.1, affine=True, track_running_stats=True)
        )
      )
      (post_relu): ReLU(inplace=True)
    )
    (stage_1_layer_2): Bottleneck(
      (body): Sequential(
        (0): ReLUClipFXQConvBN(
          (conv): Conv2d(512, 128, kernel_size=(1, 1), stride=(1, 1), bias=False)
          (bn): BatchNorm2d(128, eps=1e-05, momentum=0.1, affine=True, track_running_stats=True)
        )
        (1): ReLUClipFXQConvBN(
          (conv): Conv2d(128, 128, kernel_size=(3, 3), stride=(1, 1), padding=(1, 1), bias=False)
          (bn): BatchNorm2d(128, eps=1e-05, momentum=0.1, affine=True, track_running_stats=True)
        )
        (2): ReLUClipFXQConvBN(
          (conv): Conv2d(128, 512, kernel_size=(1, 1), stride=(1, 1), bias=False)
          (bn): BatchNorm2d(512, eps=1e-05, momentum=0.1, affine=True, track_running_stats=True)
        )
      )
      (post_relu): ReLU(inplace=True)
    )
    (stage_1_layer_3): Bottleneck(
      (body): Sequential(
        (0): ReLUClipFXQConvBN(
          (conv): Conv2d(512, 128, kernel_size=(1, 1), stride=(1, 1), bias=False)
          (bn): BatchNorm2d(128, eps=1e-05, momentum=0.1, affine=True, track_running_stats=True)
        )
        (1): ReLUClipFXQConvBN(
          (conv): Conv2d(128, 128, kernel_size=(3, 3), stride=(1, 1), padding=(1, 1), bias=False)
          (bn): BatchNorm2d(128, eps=1e-05, momentum=0.1, affine=True, track_running_stats=True)
        )
        (2): ReLUClipFXQConvBN(
          (conv): Conv2d(128, 512, kernel_size=(1, 1), stride=(1, 1), bias=False)
          (bn): BatchNorm2d(512, eps=1e-05, momentum=0.1, affine=True, track_running_stats=True)
        )
      )
      (post_relu): ReLU(inplace=True)
    )
    (stage_2_layer_0): Bottleneck(
      (body): Sequential(
        (0): ReLUClipFXQConvBN(
          (conv): Conv2d(512, 256, kernel_size=(1, 1), stride=(1, 1), bias=False)
          (bn): BatchNorm2d(256, eps=1e-05, momentum=0.1, affine=True, track_running_stats=True)
        )
        (1): ReLUClipFXQConvBN(
          (conv): Conv2d(256, 256, kernel_size=(3, 3), stride=(2, 2), padding=(1, 1), bias=False)
          (bn): BatchNorm2d(256, eps=1e-05, momentum=0.1, affine=True, track_running_stats=True)
        )
        (2): ReLUClipFXQConvBN(
          (conv): Conv2d(256, 1024, kernel_size=(1, 1), stride=(1, 1), bias=False)
          (bn): BatchNorm2d(1024, eps=1e-05, momentum=0.1, affine=True, track_running_stats=True)
        )
      )
      (shortcut): Sequential(
        (0): ReLUClipFXQConvBN(
          (conv): Conv2d(512, 1024, kernel_size=(1, 1), stride=(2, 2), bias=False)
          (bn): BatchNorm2d(1024, eps=1e-05, momentum=0.1, affine=True, track_running_stats=True)
        )
      )
      (post_relu): ReLU(inplace=True)
    )
    (stage_2_layer_1): Bottleneck(
      (body): Sequential(
        (0): ReLUClipFXQConvBN(
          (conv): Conv2d(1024, 256, kernel_size=(1, 1), stride=(1, 1), bias=False)
          (bn): BatchNorm2d(256, eps=1e-05, momentum=0.1, affine=True, track_running_stats=True)
        )
        (1): ReLUClipFXQConvBN(
          (conv): Conv2d(256, 256, kernel_size=(3, 3), stride=(1, 1), padding=(1, 1), bias=False)
          (bn): BatchNorm2d(256, eps=1e-05, momentum=0.1, affine=True, track_running_stats=True)
        )
        (2): ReLUClipFXQConvBN(
          (conv): Conv2d(256, 1024, kernel_size=(1, 1), stride=(1, 1), bias=False)
          (bn): BatchNorm2d(1024, eps=1e-05, momentum=0.1, affine=True, track_running_stats=True)
        )
      )
      (post_relu): ReLU(inplace=True)
    )
    (stage_2_layer_2): Bottleneck(
      (body): Sequential(
        (0): ReLUClipFXQConvBN(
          (conv): Conv2d(1024, 256, kernel_size=(1, 1), stride=(1, 1), bias=False)
          (bn): BatchNorm2d(256, eps=1e-05, momentum=0.1, affine=True, track_running_stats=True)
        )
        (1): ReLUClipFXQConvBN(
          (conv): Conv2d(256, 256, kernel_size=(3, 3), stride=(1, 1), padding=(1, 1), bias=False)
          (bn): BatchNorm2d(256, eps=1e-05, momentum=0.1, affine=True, track_running_stats=True)
        )
        (2): ReLUClipFXQConvBN(
          (conv): Conv2d(256, 1024, kernel_size=(1, 1), stride=(1, 1), bias=False)
          (bn): BatchNorm2d(1024, eps=1e-05, momentum=0.1, affine=True, track_running_stats=True)
        )
      )
      (post_relu): ReLU(inplace=True)
    )
    (stage_2_layer_3): Bottleneck(
      (body): Sequential(
        (0): ReLUClipFXQConvBN(
          (conv): Conv2d(1024, 256, kernel_size=(1, 1), stride=(1, 1), bias=False)
          (bn): BatchNorm2d(256, eps=1e-05, momentum=0.1, affine=True, track_running_stats=True)
        )
        (1): ReLUClipFXQConvBN(
          (conv): Conv2d(256, 256, kernel_size=(3, 3), stride=(1, 1), padding=(1, 1), bias=False)
          (bn): BatchNorm2d(256, eps=1e-05, momentum=0.1, affine=True, track_running_stats=True)
        )
        (2): ReLUClipFXQConvBN(
          (conv): Conv2d(256, 1024, kernel_size=(1, 1), stride=(1, 1), bias=False)
          (bn): BatchNorm2d(1024, eps=1e-05, momentum=0.1, affine=True, track_running_stats=True)
        )
      )
      (post_relu): ReLU(inplace=True)
    )
    (stage_2_layer_4): Bottleneck(
      (body): Sequential(
        (0): ReLUClipFXQConvBN(
          (conv): Conv2d(1024, 256, kernel_size=(1, 1), stride=(1, 1), bias=False)
          (bn): BatchNorm2d(256, eps=1e-05, momentum=0.1, affine=True, track_running_stats=True)
        )
        (1): ReLUClipFXQConvBN(
          (conv): Conv2d(256, 256, kernel_size=(3, 3), stride=(1, 1), padding=(1, 1), bias=False)
          (bn): BatchNorm2d(256, eps=1e-05, momentum=0.1, affine=True, track_running_stats=True)
        )
        (2): ReLUClipFXQConvBN(
          (conv): Conv2d(256, 1024, kernel_size=(1, 1), stride=(1, 1), bias=False)
          (bn): BatchNorm2d(1024, eps=1e-05, momentum=0.1, affine=True, track_running_stats=True)
        )
      )
      (post_relu): ReLU(inplace=True)
    )
    (stage_2_layer_5): Bottleneck(
      (body): Sequential(
        (0): ReLUClipFXQConvBN(
          (conv): Conv2d(1024, 256, kernel_size=(1, 1), stride=(1, 1), bias=False)
          (bn): BatchNorm2d(256, eps=1e-05, momentum=0.1, affine=True, track_running_stats=True)
        )
        (1): ReLUClipFXQConvBN(
          (conv): Conv2d(256, 256, kernel_size=(3, 3), stride=(1, 1), padding=(1, 1), bias=False)
          (bn): BatchNorm2d(256, eps=1e-05, momentum=0.1, affine=True, track_running_stats=True)
        )
        (2): ReLUClipFXQConvBN(
          (conv): Conv2d(256, 1024, kernel_size=(1, 1), stride=(1, 1), bias=False)
          (bn): BatchNorm2d(1024, eps=1e-05, momentum=0.1, affine=True, track_running_stats=True)
        )
      )
      (post_relu): ReLU(inplace=True)
    )
    (stage_3_layer_0): Bottleneck(
      (body): Sequential(
        (0): ReLUClipFXQConvBN(
          (conv): Conv2d(1024, 512, kernel_size=(1, 1), stride=(1, 1), bias=False)
          (bn): BatchNorm2d(512, eps=1e-05, momentum=0.1, affine=True, track_running_stats=True)
        )
        (1): ReLUClipFXQConvBN(
          (conv): Conv2d(512, 512, kernel_size=(3, 3), stride=(2, 2), padding=(1, 1), bias=False)
          (bn): BatchNorm2d(512, eps=1e-05, momentum=0.1, affine=True, track_running_stats=True)
        )
        (2): ReLUClipFXQConvBN(
          (conv): Conv2d(512, 2048, kernel_size=(1, 1), stride=(1, 1), bias=False)
          (bn): BatchNorm2d(2048, eps=1e-05, momentum=0.1, affine=True, track_running_stats=True)
        )
      )
      (shortcut): Sequential(
        (0): ReLUClipFXQConvBN(
          (conv): Conv2d(1024, 2048, kernel_size=(1, 1), stride=(2, 2), bias=False)
          (bn): BatchNorm2d(2048, eps=1e-05, momentum=0.1, affine=True, track_running_stats=True)
        )
      )
      (post_relu): ReLU(inplace=True)
    )
    (stage_3_layer_1): Bottleneck(
      (body): Sequential(
        (0): ReLUClipFXQConvBN(
          (conv): Conv2d(2048, 512, kernel_size=(1, 1), stride=(1, 1), bias=False)
          (bn): BatchNorm2d(512, eps=1e-05, momentum=0.1, affine=True, track_running_stats=True)
        )
        (1): ReLUClipFXQConvBN(
          (conv): Conv2d(512, 512, kernel_size=(3, 3), stride=(1, 1), padding=(1, 1), bias=False)
          (bn): BatchNorm2d(512, eps=1e-05, momentum=0.1, affine=True, track_running_stats=True)
        )
        (2): ReLUClipFXQConvBN(
          (conv): Conv2d(512, 2048, kernel_size=(1, 1), stride=(1, 1), bias=False)
          (bn): BatchNorm2d(2048, eps=1e-05, momentum=0.1, affine=True, track_running_stats=True)
        )
      )
      (post_relu): ReLU(inplace=True)
    )
    (stage_3_layer_2): Bottleneck(
      (body): Sequential(
        (0): ReLUClipFXQConvBN(
          (conv): Conv2d(2048, 512, kernel_size=(1, 1), stride=(1, 1), bias=False)
          (bn): BatchNorm2d(512, eps=1e-05, momentum=0.1, affine=True, track_running_stats=True)
        )
        (1): ReLUClipFXQConvBN(
          (conv): Conv2d(512, 512, kernel_size=(3, 3), stride=(1, 1), padding=(1, 1), bias=False)
          (bn): BatchNorm2d(512, eps=1e-05, momentum=0.1, affine=True, track_running_stats=True)
        )
        (2): ReLUClipFXQConvBN(
          (conv): Conv2d(512, 2048, kernel_size=(1, 1), stride=(1, 1), bias=False)
          (bn): BatchNorm2d(2048, eps=1e-05, momentum=0.1, affine=True, track_running_stats=True)
        )
      )
      (post_relu): ReLU(inplace=True)
    )
    (avgpool): AdaptiveAvgPool2d(output_size=1)
    (classifier): Sequential(
      (0): ReLUClipFXQLinear(in_features=2048, out_features=1000, bias=True)
    )
  )
)
log dir:  /nfs/qjin/checkpoints/FixBits/results/imagenet/resnet50/ptcv_pretrained_True/fix_bn_False/f
…
